services/sprint_impact_service/ml_models/network.pt (torch, 79057 bytes, 112 tensors)

tabnet.initial_bn.weight f4 [6]
1.0 1.0 1.0 1.0 1.0 1.0
00000000: 0000 803f 0000 803f 0000 803f 0000 803f
00000010: 0000 803f 0000 803f

tabnet.initial_bn.bias f4 [6]
0.0 0.0 0.0 0.0 0.0 0.0
00000000: 0000 0000 0000 0000 0000 0000 0000 0000
00000010: 0000 0000 0000 0000

tabnet.initial_bn.running_mean f4 [6]
0.0 0.0 0.0 0.0 0.0 0.0
00000000: 0000 0000 0000 0000 0000 0000 0000 0000
00000010: 0000 0000 0000 0000

tabnet.initial_bn.running_var f4 [6]
1.0 1.0 1.0 1.0 1.0 1.0
00000000: 0000 803f 0000 803f 0000 803f 0000 803f
00000010: 0000 803f 0000 803f

tabnet.encoder.initial_bn.weight f4 [6]
1.0211021 1.077626 0.9614995 0.9008547 1.0165714 1.0
00000000: 79b3 823f a6ef 893f d524 763f 6a9e 663f
00000010: 031f 823f 0000 803f

tabnet.encoder.initial_bn.bias f4 [6]
0.04782939 -0.06671936 0.050642386 0.107706755 0.08875999 -0.097320445
00000000: c0e8 433d 29a4 88bd 646e 4f3d 5c95 dc3d
00000010: ccc7 b53d f14f c7bd

tabnet.encoder.initial_bn.running_mean f4 [6]
0.14127967 0.0062242732 0.014778193 0.7095962 0.16931501 0.117039695
00000000: 9eab 103e fdf4 cb3b 3c20 723c 19a8 353f
00000010: ea60 2d3e 82b2 ef3d

tabnet.encoder.initial_bn.running_var f4 [6]
1.2471824 0.9497001 0.97954094 1.4370251 1.6469023 0.9414802
00000000: aca3 9f3f 8c1f 733f 32c3 7a3f 70f0 b73f
00000010: b2cd d23f d904 713f

tabnet.encoder.initial_splitter.shared.shared_layers.0.weight f4 [32, 6]
-0.46480992 -0.1963929 -0.20641087 -1.0987471 0.75084364 1.1888468 -0.16059332 1.4809971
1.0025438 -0.37217444 -0.36859536 -1.2223284 0.98108613 0.3301769 1.0197079 0.6959529
-0.02439785 0.8145103 -0.1884898 0.6994899 -0.69541883 0.18874687 -0.4787662 1.5071818
-0.3448607 -0.11352076 -0.9655142 -0.9585711 -0.12619647 0.58356225 -0.795741 -0.60928077
-0.76109314 0.079077765 0.23306763 0.47601974 -0.38545257 0.7188774 -0.9575233 0.36833835
-0.0792343 1.0203485 0.029827269 1.8423964 -0.15526113 0.16114374 -0.44736782 -0.6630776
0.45448205 0.21971987 0.71509707 -0.842761 -0.9732282 1.9494643 -0.34953022 -1.3018664
0.38712528 0.7922735 0.8086023 -0.66932577 -0.6296702 -0.10660673 -0.8165595 0.44520843
-0.54436 -1.1693296 0.6735091 -0.6390323 0.91466415 0.5240978 0.99586385 1.2898326
0.44635308 -0.088390574 -0.035034567 1.0053232 0.088239454 -0.032937594 -0.5161006 0.6111989
0.4479926 -0.15470892 1.5006187 1.1695353 -0.17206015 -0.6229365 -1.7246126 0.6217279
0.18320793 -0.2889853 -0.088622324 -0.28397006 -0.14089018 0.60866314 -0.6256736 -0.86160666
1.3161619 -0.1748383 0.43767524 -1.4093968 0.09439039 -0.29913312 -1.0250665 0.46287644
0.5361201 -0.32368666 -1.3937918 -0.9775385 -0.44799381 -0.3868911 -1.2804139 -1.4529694
-0.46197456 1.0726124 -0.8289183 -0.34764063 1.2948048 0.36615106 -0.07340382 1.8064644
-0.75215006 -0.15580423 0.2200371 0.7414139 -0.55613005 0.70756847 -0.963675 -0.87388146
0.07646301 -0.8114527 -1.951889 -0.96793944 -0.22958814 -0.5777428 -0.089737095 -0.8500434
-0.67998457 0.40963203 1.2604983 -0.27607307 0.048420105 0.26096815 0.23972473 -0.2863082
-0.326658 -0.2679344 -0.7629394 0.4644069 -0.8446888 0.86494166 -0.99686337 1.8589332
-0.9603761 -0.8131778 0.063460074 1.1566662 -0.20240812 0.55096036 -0.08541894 -0.16581744
-0.14851287 2.4370003 0.4497024 -0.28086913 -0.6585832 -0.570286 0.0657982 -0.38275793
-0.9752968 -0.17383377 0.35361245 1.8863755 -1.2825598 0.48025355 -0.035493903 0.55139256
-0.11917159 -0.16898848 -0.37376234 1.4847965 1.4954722 -0.33999947 -0.35167766 -0.6878063
-1.2388278 -0.03197291 0.76691175 -0.6153283 0.37825513 -0.60662246 2.3872979 0.99854046
00000000: 91fb edbe 381b 49be 5f5d 53be bfa3 8cbf
00000010: 4a37 403f 222c 983f 9372 24be 5091 bd3f
00000020: 5b53 803f a68d bebe 88b8 bcbe 4275 9cbf
00000030: 7628 7b3f f20c a93e ca85 823f f829 323f
00000040: 00de c7bc bf83 503f 7803 41be c511 333f
00000050: f806 32bf dc46 413e d820 f5be 55eb c03f
00000060: 9591 b0be 927d e8bd f02b 77bf ea64 75bf
00000070: a639 01be 5664 153f afb5 4bbf d3f9 1bbf
00000080: 00d7 42bf 86f3 a13d 48a9 6e3e dcb8 f33e
00000090: 0a5a c5be 5908 383f 3f20 75bf d896 bc3e
000000a0: 9845 a2bd c89a 823f 5158 f43c a5d3 eb3f
000000b0: c6fc 1ebe dd02 253e 650d e5be 74bf 29bf
000000c0: dfb1 e83e 3ffe 603e 9a10 373f 2fbf 57bf
000000d0: 7c25 79bf 0c88 f93f a0f5 b2be 8fa3 a6bf
000000e0: 4935 c63e 70d2 4a3f 8f00 4f3f ef58 2bbf
000000f0: 1132 21bf a154 dabd 0b0a 51bf 5cf2 e33e
00000100: 2d5b 0bbf 98ac 95bf 186b 2c3f 9f97 23bf
00000110: 6e27 6a3f 462b 063f eff0 7e3f 3c19 a53f
00000120: 6488 e43e 1e06 b5bd 6880 0fbd 6eae 803f
00000130: e3b6 b43d 92e9 06bd 2b1f 04bf 8877 1c3f
00000140: 495f e53e 046c 1ebe 4614 c03f 55b3 953f
00000150: 8930 30be c478 1fbf 1bc0 dcbf 8f29 1f3f
00000160: dc9a 3b3e e2f5 93be 9f7f b5bd 8664 91be
00000170: 8445 10be 59d1 1b3f 252c 20bf 4192 5cbf
00000180: fe77 a83f d008 33be f816 e03e 1d67 b4bf
00000190: c04f c13d fa27 99be 6135 83bf 24fe ec3e
000001a0: 2b3f 093f 42ba a5be c567 b2bf f73f 7abf
000001b0: 725f e5be 9716 c6be 9ae4 a3bf e7fa b9bf
000001c0: ee87 ecbe 5d4b 893f fd33 54bf f4fd b1be
000001d0: 2abc a53f 2778 bb3e be54 96bd 3a3a e73f
000001e0: e88c 40bf 258b 1fbe 6851 613e 4dcd 3d3f
000001f0: 8a5e 0ebf 3523 353f 68b3 76bf b2b6 5fbf
00000200: a398 9c3d 5dbb 4fbf 80d7 f9bf e1ca 77bf
00000210: 2719 6bbe f4e6 13bf 15c8 b7bd 729c 59bf
00000220: 7813 2ebf 4abb d13e 0258 a13f 7359 8dbe
00000230: 2954 463d 9e9d 853e 667a 753e fd96 92be
00000240: b83f a7be b32e 89be ff4f 43bf bec6 ed3e
00000250: 863d 58bf d16c 5d3f 7032 7fbf 86f1 ed3f
00000260: 35db 75bf 6c2c 50bf 5bf7 813d a30d 943f
00000270: 1344 4fbe bd0b 0d3f 20f0 aebd 0ccc 29be
00000280: c213 18be d0f7 1b40 653f e63e 14ce 8fbe
00000290: e998 28bf 43fe 11bf 35c1 863d d9f8 c3be
000002a0: 0dad 79bf 7b01 32be b10c b53e c174 f13f
000002b0: eb2a a4bf cbe3 f53e 0e62 11bd 1028 0d3f
000002c0: 3c10 f4bd 510b 2dbe c75d bfbe d00d be3f
000002d0: a26b bf3f 6914 aebe 180f b4be 1314 30bf
000002e0: e991 9ebf 07f6 02bd 5454 443f 2886 1dbf
000002f0: a8aa c13e 9c4b 1bbf 7dc9 1840 59a0 7f3f

tabnet.encoder.initial_splitter.shared.shared_layers.1.weight f4 [32, 16]
1.0515108 0.05359117 -0.7931478 -0.18344912 1.4227648 0.34923065 -0.70668846 0.5162631
-1.0809672 -0.04475543 0.056425832 -0.7048802 0.013342976 0.071888775 0.051925674 -0.08420086
0.6143447 -0.07498673 -1.1273241 1.9567491 -1.1115139 0.72419214 -0.7184189 -0.2586905
0.15063477 -0.37332013 1.3345338 -0.16965581 -0.49287394 -1.2499903 -0.14014977 0.2137733
-0.52955794 -0.28947464 0.0078065386 -0.32466066 0.19650649 0.05974213 1.2383201 -0.32892144
-0.050565336 0.30461517 0.16789587 0.50330675 0.14767566 -0.07941761 -0.13793415 0.4575813
-0.7825388 0.6518535 0.19513923 0.75580746 -0.4431159 -0.65441656 -0.39136642 1.1634841
-0.44501227 -1.1765018 -1.0494225 -0.5184545 -0.42784083 0.028221421 0.6586519 -2.3954284
1.2572886 0.33953348 0.21997216 -0.6344529 -0.19597179 0.093396954 0.24385516 0.14027248
-0.5565043 -1.5523183 0.12111641 0.5819359 -0.3756268 -0.33223128 -0.15417169 0.5501895
-0.6381068 -0.50579196 0.79593253 -0.09311364 -0.26785365 -0.042410787 1.33667 -0.52987313
0.3054266 -1.1401207 0.5527155 0.43479115 -0.23767914 0.7293116 -0.9512837 0.3265033
-0.6430702 -0.29095277 -0.11918492 -0.8060113 0.24060547 -0.5035662 -0.05602117 -0.78899676
0.93980676 -0.52403355 0.6929398 -1.665006 0.014558985 -0.05542348 -0.6663855 -0.50815344
0.22451647 0.027097542 0.34957692 0.2439671 0.027543565 -0.909831 0.20443529 -0.80422086
0.43564558 -0.5061353 -0.99869394 -0.12869416 0.41650438 -0.21520948 -0.054438654 0.73357546
0.9635386 1.1647723 0.51819944 0.36142278 0.6158563 0.9602041 0.26885298 -0.010200029
0.58206785 0.4642761 -0.60372084 -0.5709317 0.7362144 0.11545038 0.1303973 -0.6388825
-0.4479762 -0.6505871 -0.049316555 0.26376873 -0.716313 0.4181506 0.91746217 -0.63642406
1.4306433 -0.35306233 -0.66010267 -0.19309543 -0.41575885 -1.2301432 -0.65118676 0.08373108
-0.34366512 -1.1242892 -0.047139946 -1.252473 -0.8377766 -0.9483134 0.20115884 -0.23401584
0.6111157 0.70522225 -0.8294523 -1.4613631 0.9381455 0.16792436 0.19038364 1.2315243
0.5348408 -0.79183406 0.5288715 1.1744981 0.8706646 -0.40007517 0.79303503 -0.5638055
-0.5295121 0.041150957 -0.22438459 -0.56030935 -0.1127997 -0.17276274 -0.6201245 0.050365496
0.9725671 0.3307771 -0.23473845 0.27129868 0.13226901 -0.3055072 -0.26253828 1.1652164
0.43725246 -0.28279418 -0.28115186 0.37107223 -0.00026715896 -0.56135905 0.07514301 -0.9798946
-0.061111838 -0.031483106 0.6603559 0.43654135 -0.8835343 0.5408899 -0.3106982 -0.8236578
-0.25464565 -1.4672933 -0.26401022 0.6958519 0.59751177 -0.31753126 0.7480776 -1.1003164
-0.4999237 0.03384172 0.6207657 0.43104357 0.57827395 0.13658133 0.1027362 -0.4895971
0.98666525 0.22362736 -0.4528919 1.7590172 0.48846966 -0.12587295 -0.1886679 -0.8121041
-2.6559172 -0.6836485 -0.9882774 -0.38164252 0.3279233 -0.24160157 0.044762988 0.8176085
0.7781005 -0.4631038 1.0053172 0.08059471 0.12611844 0.9202803 -0.3768195 -0.23380432
00000000: e897 863f 6a82 5b3d bc0b 4bbf 16da 3bbe
00000010: 281d b63f 5cce b23e 89e9 34bf d229 043f
00000020: 225d 8abf 7851 37bd c61e 673d 0773 34bf
00000030: 7f9c 5a3c 6c3a 933d 04b0 543d 8071 acbd
00000040: b245 1d3f a592 99bd 284c 90bf c176 fa3f
00000050: 1646 8ebf a864 393f 4dea 37bf 1573 84be
00000060: 0040 1a3e d123 bfbe 01d2 aa3f 41ba 2dbe
00000070: f959 fcbe afff 9fbf 6c83 0fbe 63e7 5a3e
00000080: 1c91 07bf 0536 94be fecd ff3b ec39 a6be
00000090: ff38 493e 2ab4 743d 4681 9e3f 6468 a8be
000000a0: 991d 4fbd 85f6 9b3e e5ec 2b3e b6d8 003f
000000b0: 4a38 173e b3a5 a2bd 9c3e 0dbe 1948 ea3e
000000c0: 7654 48bf dfdf 263f 94d2 473e 997c 413f
000000d0: 16e0 e2be d887 27bf 2e61 c8be 0ced 943f
000000e0: a6d8 e3be 9c97 96bf 7a53 86bf 6fb9 04bf
000000f0: f40d dbbe 9c30 e73c 699d 283f b34e 19c0
00000100: d5ee a03f 55d7 ad3e 6240 613e 816b 22bf
00000110: d4ac 48be e746 bf3d 2bb5 793e 97a3 0f3e
00000120: 1177 0ebf 5eb2 c6bf e10b f83d c0f9 143f
00000130: 2852 c0be 381a aabe 2fdf 1dbe 38d9 0c3f
00000140: f85a 23bf 957b 01bf 3cc2 4b3f 5db2 bebd
00000150: 1d24 89be efb6 2dbd 0118 ab3f c4a5 07bf
00000160: e060 9c3e 7aef 91bf c37e 0d3f f29c de3e
00000170: 2962 73be 2ab4 3a3f 5487 73bf 712b a73e
00000180: 40a0 24bf c3f7 94be 3917 f4bd c256 4ebf
00000190: 4861 763e b7e9 00bf 7476 65bd b1fb 49bf
000001a0: 2d97 703f 1027 06bf 8164 313f eb1e d5bf
000001b0: cf88 6e3c bb03 63bd 3d98 2abf 5816 02bf
000001c0: a5e7 653e aafb dd3c bffb b23e 83d2 793e
000001d0: 0ba3 e13c afea 68bf 7c57 513e 6be1 4dbf
000001e0: f00c df3e 1592 01bf 68aa 7fbf 67c8 03be
000001f0: 1040 d53e e05f 5cbe 11fb 5ebd 9acb 3b3f
00000200: 77aa 763f 4217 953f b8a8 043f 680c b93e
00000210: c2a8 1d3f f0cf 753f 19a7 893e 061e 27bc
00000220: 6602 153f 99b5 ed3e 738d 1abf 9428 12bf
00000230: 8c78 3c3f 4071 ec3d df86 053e ce8d 23bf
00000240: 235d e5be e08c 26bf 2800 4abd b20c 873e
00000250: 4a60 37bf d617 d63e cdde 6a3f b0ec 22bf
00000260: 521f b73f 96c4 b4be 7dfc 28bf cfba 45be
00000270: 58de d4be 5575 9dbf 2db4 26bf 337b ab3d
00000280: e0f4 afbe b5e8 8fbf d115 41bd 0951 a0bf
00000290: 8778 56bf abc4 72bf 95fc 4d3e d9a1 6fbe
000002a0: 1472 1c3f 7289 343f fc56 54bf f20d bbbf
000002b0: 4e2a 703f 5df4 2b3e eef3 423e 97a2 9d3f
000002c0: 54eb 083f a3b5 4abf 1f64 073f f455 963f
000002d0: e0e3 5e3f a7d6 ccbe 5804 4b3f 8f55 10bf
000002e0: 1b8e 07bf e88d 283d 13c5 65be 6f70 0fbf
000002f0: 8703 e7bd b7e8 30be 7bc0 1ebf 0d4c 4e3d
00000300: 28fa 783f 9e5b a93e 475f 70be a9e7 8a3e
00000310: 8771 073e 716b 9cbe 6b6b 86be d025 953f
00000320: 8edf df3e 66ca 90be 23f3 8fbe 2efd bd3e
00000330: 7811 8cb9 3ab5 0fbf 94e4 993d 5fda 7abf
00000340: 6850 7abd 6ef4 00bd 160d 293f 5982 df3e
00000350: 4e2f 62bf c377 0a3f d613 9fbe 3ddb 52bf
00000360: ea60 82be 44d0 bbbf 592c 87be 5a23 323f
00000370: 88f6 183f 7593 a2be 0382 3f3f 2bd7 8cbf
00000380: 00f6 ffbe 9e9d 0a3d 80ea 1e3f beb1 dc3e
00000390: c309 143f fadb 0b3e 5b67 d23d 79ac fabe
000003a0: 1896 7c3f 92fe 643e 72e1 e7be 7a27 e13f
000003b0: b218 fa3e d7e4 00be 2832 41be 0ee6 4fbf
000003c0: 8cfa 29c0 9703 2fbf bfff 7cbf a666 c3be
000003d0: 90e5 a73e 6766 77be 6559 373d ca4e 513f
000003e0: 9831 473f f11b edbe 3cae 803f d70e a53d
000003f0: 3125 013e 7d97 6b3f 7cee c0be 666a 6fbe

tabnet.encoder.initial_splitter.shared.glu_layers.0.fc.weight f4 [32, 6]
-0.46480992 -0.1963929 -0.20641087 -1.0987471 0.75084364 1.1888468 -0.16059332 1.4809971
1.0025438 -0.37217444 -0.36859536 -1.2223284 0.98108613 0.3301769 1.0197079 0.6959529
-0.02439785 0.8145103 -0.1884898 0.6994899 -0.69541883 0.18874687 -0.4787662 1.5071818
-0.3448607 -0.11352076 -0.9655142 -0.9585711 -0.12619647 0.58356225 -0.795741 -0.60928077
-0.76109314 0.079077765 0.23306763 0.47601974 -0.38545257 0.7188774 -0.9575233 0.36833835
-0.0792343 1.0203485 0.029827269 1.8423964 -0.15526113 0.16114374 -0.44736782 -0.6630776
0.45448205 0.21971987 0.71509707 -0.842761 -0.9732282 1.9494643 -0.34953022 -1.3018664
0.38712528 0.7922735 0.8086023 -0.66932577 -0.6296702 -0.10660673 -0.8165595 0.44520843
-0.54436 -1.1693296 0.6735091 -0.6390323 0.91466415 0.5240978 0.99586385 1.2898326
0.44635308 -0.088390574 -0.035034567 1.0053232 0.088239454 -0.032937594 -0.5161006 0.6111989
0.4479926 -0.15470892 1.5006187 1.1695353 -0.17206015 -0.6229365 -1.7246126 0.6217279
0.18320793 -0.2889853 -0.088622324 -0.28397006 -0.14089018 0.60866314 -0.6256736 -0.86160666
1.3161619 -0.1748383 0.43767524 -1.4093968 0.09439039 -0.29913312 -1.0250665 0.46287644
0.5361201 -0.32368666 -1.3937918 -0.9775385 -0.44799381 -0.3868911 -1.2804139 -1.4529694
-0.46197456 1.0726124 -0.8289183 -0.34764063 1.2948048 0.36615106 -0.07340382 1.8064644
-0.75215006 -0.15580423 0.2200371 0.7414139 -0.55613005 0.70756847 -0.963675 -0.87388146
0.07646301 -0.8114527 -1.951889 -0.96793944 -0.22958814 -0.5777428 -0.089737095 -0.8500434
-0.67998457 0.40963203 1.2604983 -0.27607307 0.048420105 0.26096815 0.23972473 -0.2863082
-0.326658 -0.2679344 -0.7629394 0.4644069 -0.8446888 0.86494166 -0.99686337 1.8589332
-0.9603761 -0.8131778 0.063460074 1.1566662 -0.20240812 0.55096036 -0.08541894 -0.16581744
-0.14851287 2.4370003 0.4497024 -0.28086913 -0.6585832 -0.570286 0.0657982 -0.38275793
-0.9752968 -0.17383377 0.35361245 1.8863755 -1.2825598 0.48025355 -0.035493903 0.55139256
-0.11917159 -0.16898848 -0.37376234 1.4847965 1.4954722 -0.33999947 -0.35167766 -0.6878063
-1.2388278 -0.03197291 0.76691175 -0.6153283 0.37825513 -0.60662246 2.3872979 0.99854046
00000000: 91fb edbe 381b 49be 5f5d 53be bfa3 8cbf
00000010: 4a37 403f 222c 983f 9372 24be 5091 bd3f
00000020: 5b53 803f a68d bebe 88b8 bcbe 4275 9cbf
00000030: 7628 7b3f f20c a93e ca85 823f f829 323f
00000040: 00de c7bc bf83 503f 7803 41be c511 333f
00000050: f806 32bf dc46 413e d820 f5be 55eb c03f
00000060: 9591 b0be 927d e8bd f02b 77bf ea64 75bf
00000070: a639 01be 5664 153f afb5 4bbf d3f9 1bbf
00000080: 00d7 42bf 86f3 a13d 48a9 6e3e dcb8 f33e
00000090: 0a5a c5be 5908 383f 3f20 75bf d896 bc3e
000000a0: 9845 a2bd c89a 823f 5158 f43c a5d3 eb3f
000000b0: c6fc 1ebe dd02 253e 650d e5be 74bf 29bf
000000c0: dfb1 e83e 3ffe 603e 9a10 373f 2fbf 57bf
000000d0: 7c25 79bf 0c88 f93f a0f5 b2be 8fa3 a6bf
000000e0: 4935 c63e 70d2 4a3f 8f00 4f3f ef58 2bbf
000000f0: 1132 21bf a154 dabd 0b0a 51bf 5cf2 e33e
00000100: 2d5b 0bbf 98ac 95bf 186b 2c3f 9f97 23bf
00000110: 6e27 6a3f 462b 063f eff0 7e3f 3c19 a53f
00000120: 6488 e43e 1e06 b5bd 6880 0fbd 6eae 803f
00000130: e3b6 b43d 92e9 06bd 2b1f 04bf 8877 1c3f
00000140: 495f e53e 046c 1ebe 4614 c03f 55b3 953f
00000150: 8930 30be c478 1fbf 1bc0 dcbf 8f29 1f3f
00000160: dc9a 3b3e e2f5 93be 9f7f b5bd 8664 91be
00000170: 8445 10be 59d1 1b3f 252c 20bf 4192 5cbf
00000180: fe77 a83f d008 33be f816 e03e 1d67 b4bf
00000190: c04f c13d fa27 99be 6135 83bf 24fe ec3e
000001a0: 2b3f 093f 42ba a5be c567 b2bf f73f 7abf
000001b0: 725f e5be 9716 c6be 9ae4 a3bf e7fa b9bf
000001c0: ee87 ecbe 5d4b 893f fd33 54bf f4fd b1be
000001d0: 2abc a53f 2778 bb3e be54 96bd 3a3a e73f
000001e0: e88c 40bf 258b 1fbe 6851 613e 4dcd 3d3f
000001f0: 8a5e 0ebf 3523 353f 68b3 76bf b2b6 5fbf
00000200: a398 9c3d 5dbb 4fbf 80d7 f9bf e1ca 77bf
00000210: 2719 6bbe f4e6 13bf 15c8 b7bd 729c 59bf
00000220: 7813 2ebf 4abb d13e 0258 a13f 7359 8dbe
00000230: 2954 463d 9e9d 853e 667a 753e fd96 92be
00000240: b83f a7be b32e 89be ff4f 43bf bec6 ed3e
00000250: 863d 58bf d16c 5d3f 7032 7fbf 86f1 ed3f
00000260: 35db 75bf 6c2c 50bf 5bf7 813d a30d 943f
00000270: 1344 4fbe bd0b 0d3f 20f0 aebd 0ccc 29be
00000280: c213 18be d0f7 1b40 653f e63e 14ce 8fbe
00000290: e998 28bf 43fe 11bf 35c1 863d d9f8 c3be
000002a0: 0dad 79bf 7b01 32be b10c b53e c174 f13f
000002b0: eb2a a4bf cbe3 f53e 0e62 11bd 1028 0d3f
000002c0: 3c10 f4bd 510b 2dbe c75d bfbe d00d be3f
000002d0: a26b bf3f 6914 aebe 180f b4be 1314 30bf
000002e0: e991 9ebf 07f6 02bd 5454 443f 2886 1dbf
000002f0: a8aa c13e 9c4b 1bbf 7dc9 1840 59a0 7f3f

tabnet.encoder.initial_splitter.shared.glu_layers.0.bn.bn.weight f4 [32]
1.0245371 1.0145564 0.9839454 1.0487154 1.0325289 1.0307449 0.99267083 1.0646096
1.0042562 1.0255367 0.9023697 0.9221918 1.0934265 0.9299031 1.0170544 0.9845859
1.0458117 0.91298145 1.0390995 1.0497099 1.0631796 0.9922736 1.0974699 1.0531183
0.9378816 0.9969213 0.93270147 1.0595111 0.9669758 0.9282202 0.99131924 0.99177533
00000000: 0824 833f fcdc 813f d9e3 7b3f 4e3c 863f
00000010: e829 843f 73ef 833f ad1f 7e3f 2145 883f
00000020: 788b 803f c944 833f b301 673f c314 6c3f
00000030: 66f5 8b3f 210e 6e3f d72e 823f d20d 7c3f
00000040: 28dd 853f 27b9 693f 3601 853f e55c 863f
00000050: 4516 883f a505 7e3f e579 8c3f 95cc 863f
00000060: 0219 703f 3c36 7f3f 86c5 6e3f 0f9e 873f
00000070: ba8b 773f d79f 6d3f 19c7 7d3f fde4 7d3f

tabnet.encoder.initial_splitter.shared.glu_layers.0.bn.bn.bias f4 [32]
-0.11095475 -0.08493818 0.010062042 0.045505285 -0.02665516 0.037681196 -0.0045103887 0.05402106
-0.098590255 0.019764148 0.09184926 0.112846814 -0.012648983 -0.08875507 0.066500135 -0.0183051
0.0022495165 0.05695471 -0.007057294 0.05857636 0.023884106 0.021375543 -0.053955518 0.06747664
0.018057598 -0.10656203 -0.06769902 -0.09211639 0.09330215 -0.08777337 0.0541226 0.08477117
00000000: 3e3c e3bd 12f4 adbd 43db 243c c063 3a3d
00000010: ec5b dabc 9957 1a3d e2cb 93bb 3045 5d3d
00000020: b0e9 c9bd 6ce8 a13c 771b bc3d 3b1c e73d
00000030: ae3d 4fbc 38c5 b5bd 3931 883d 94f4 95bc
00000040: a06c 133b 5849 693d df40 e7bb c4ed 6f3d
00000050: 9aa8 c33c c31b af3c 7600 5dbd 3131 8a3d
00000060: 87ed 933c 323d dabd c9a5 8abd 85a7 bcbd
00000070: 3315 bf3d 86c2 b3bd a9af 5d3d 829c ad3d

tabnet.encoder.initial_splitter.shared.glu_layers.0.bn.bn.running_mean f4 [32]
-0.019490145 0.0008118951 0.01044564 -0.029447915 -0.02455342 -0.0071504815 -0.022422103 -0.01153088
-0.0315711 0.033291582 0.0010719622 0.018320112 0.015248729 -0.0026056082 0.0024018856 0.008896195
0.002710184 -0.013475952 -0.039632585 -0.008908752 -0.007538306 -0.01727705 -0.017548466 0.019406587
-0.017544422 -0.04740493 -0.0335956 -0.0007132163 -0.000620594 -0.025345106 -0.010439084 0.019717472
00000000: cca9 9fbc 5cd5 543a 3124 2b3c c13c f1bc
00000010: 4124 c9bc 964e eabb 8fae b7bc 04ec 3cbc
00000020: b350 01bd c15c 083d 1581 8c3a 0f14 963c
00000030: ced5 793c dac2 2abb f468 1d3b 59c1 113c
00000040: 589d 313b 3dca 5cbc c755 22bd 04f6 11bc
00000050: e503 f7bb 9a88 8dbc cdc1 8fbc 90fa 9e3c
00000060: 52b9 8fbc ac2b 42bd 8a9b 09bd 23f7 3aba
00000070: 5caf 22ba 8aa0 cfbc b108 2bbc 8986 a13c

tabnet.encoder.initial_splitter.shared.glu_layers.0.bn.bn.running_var f4 [32]
1.0501467 1.3668354 1.3510011 0.98185146 1.1778357 1.0605204 1.1469352 1.3934711
1.0933607 1.1517 1.2606277 1.4524301 1.0626061 1.428515 1.5486926 1.0361825
1.5250052 1.9278275 1.7697871 1.3940927 1.2421619 3.5560439 1.323098 1.2358533
1.2950897 2.0050108 0.8587049 0.9464139 2.5059521 0.84164035 1.0823493 2.4161038
00000000: 356b 863f 76f4 ae3f 9bed ac3f 9e5a 7b3f
00000010: 52c3 963f 22bf 873f c6ce 923f 435d b23f
00000020: 3ef3 8b3f e86a 933f 405c a13f 3be9 b93f
00000030: 7a03 883f 94d9 b63f 8f3b c63f a1a1 843f
00000040: 5f33 c33f 0dc3 f63f 6288 e23f a171 b23f
00000050: 29ff 9e3f 3996 6340 465b a93f 7130 9e3f
00000060: 80c5 a53f 1952 0040 16d4 5b3f 2e48 723f
00000070: 8561 2040 be75 573f 6c8a 8a3f 72a1 1a40

tabnet.encoder.initial_splitter.shared.glu_layers.1.fc.weight f4 [32, 16]
1.0515108 0.05359117 -0.7931478 -0.18344912 1.4227648 0.34923065 -0.70668846 0.5162631
-1.0809672 -0.04475543 0.056425832 -0.7048802 0.013342976 0.071888775 0.051925674 -0.08420086
0.6143447 -0.07498673 -1.1273241 1.9567491 -1.1115139 0.72419214 -0.7184189 -0.2586905
0.15063477 -0.37332013 1.3345338 -0.16965581 -0.49287394 -1.2499903 -0.14014977 0.2137733
-0.52955794 -0.28947464 0.0078065386 -0.32466066 0.19650649 0.05974213 1.2383201 -0.32892144
-0.050565336 0.30461517 0.16789587 0.50330675 0.14767566 -0.07941761 -0.13793415 0.4575813
-0.7825388 0.6518535 0.19513923 0.75580746 -0.4431159 -0.65441656 -0.39136642 1.1634841
-0.44501227 -1.1765018 -1.0494225 -0.5184545 -0.42784083 0.028221421 0.6586519 -2.3954284
1.2572886 0.33953348 0.21997216 -0.6344529 -0.19597179 0.093396954 0.24385516 0.14027248
-0.5565043 -1.5523183 0.12111641 0.5819359 -0.3756268 -0.33223128 -0.15417169 0.5501895
-0.6381068 -0.50579196 0.79593253 -0.09311364 -0.26785365 -0.042410787 1.33667 -0.52987313
0.3054266 -1.1401207 0.5527155 0.43479115 -0.23767914 0.7293116 -0.9512837 0.3265033
-0.6430702 -0.29095277 -0.11918492 -0.8060113 0.24060547 -0.5035662 -0.05602117 -0.78899676
0.93980676 -0.52403355 0.6929398 -1.665006 0.014558985 -0.05542348 -0.6663855 -0.50815344
0.22451647 0.027097542 0.34957692 0.2439671 0.027543565 -0.909831 0.20443529 -0.80422086
0.43564558 -0.5061353 -0.99869394 -0.12869416 0.41650438 -0.21520948 -0.054438654 0.73357546
0.9635386 1.1647723 0.51819944 0.36142278 0.6158563 0.9602041 0.26885298 -0.010200029
0.58206785 0.4642761 -0.60372084 -0.5709317 0.7362144 0.11545038 0.1303973 -0.6388825
-0.4479762 -0.6505871 -0.049316555 0.26376873 -0.716313 0.4181506 0.91746217 -0.63642406
1.4306433 -0.35306233 -0.66010267 -0.19309543 -0.41575885 -1.2301432 -0.65118676 0.08373108
-0.34366512 -1.1242892 -0.047139946 -1.252473 -0.8377766 -0.9483134 0.20115884 -0.23401584
0.6111157 0.70522225 -0.8294523 -1.4613631 0.9381455 0.16792436 0.19038364 1.2315243
0.5348408 -0.79183406 0.5288715 1.1744981 0.8706646 -0.40007517 0.79303503 -0.5638055
-0.5295121 0.041150957 -0.22438459 -0.56030935 -0.1127997 -0.17276274 -0.6201245 0.050365496
0.9725671 0.3307771 -0.23473845 0.27129868 0.13226901 -0.3055072 -0.26253828 1.1652164
0.43725246 -0.28279418 -0.28115186 0.37107223 -0.00026715896 -0.56135905 0.07514301 -0.9798946
-0.061111838 -0.031483106 0.6603559 0.43654135 -0.8835343 0.5408899 -0.3106982 -0.8236578
-0.25464565 -1.4672933 -0.26401022 0.6958519 0.59751177 -0.31753126 0.7480776 -1.1003164
-0.4999237 0.03384172 0.6207657 0.43104357 0.57827395 0.13658133 0.1027362 -0.4895971
0.98666525 0.22362736 -0.4528919 1.7590172 0.48846966 -0.12587295 -0.1886679 -0.8121041
-2.6559172 -0.6836485 -0.9882774 -0.38164252 0.3279233 -0.24160157 0.044762988 0.8176085
0.7781005 -0.4631038 1.0053172 0.08059471 0.12611844 0.9202803 -0.3768195 -0.23380432
00000000: e897 863f 6a82 5b3d bc0b 4bbf 16da 3bbe
00000010: 281d b63f 5cce b23e 89e9 34bf d229 043f
00000020: 225d 8abf 7851 37bd c61e 673d 0773 34bf
00000030: 7f9c 5a3c 6c3a 933d 04b0 543d 8071 acbd
00000040: b245 1d3f a592 99bd 284c 90bf c176 fa3f
00000050: 1646 8ebf a864 393f 4dea 37bf 1573 84be
00000060: 0040 1a3e d123 bfbe 01d2 aa3f 41ba 2dbe
00000070: f959 fcbe afff 9fbf 6c83 0fbe 63e7 5a3e
00000080: 1c91 07bf 0536 94be fecd ff3b ec39 a6be
00000090: ff38 493e 2ab4 743d 4681 9e3f 6468 a8be
000000a0: 991d 4fbd 85f6 9b3e e5ec 2b3e b6d8 003f
000000b0: 4a38 173e b3a5 a2bd 9c3e 0dbe 1948 ea3e
000000c0: 7654 48bf dfdf 263f 94d2 473e 997c 413f
000000d0: 16e0 e2be d887 27bf 2e61 c8be 0ced 943f
000000e0: a6d8 e3be 9c97 96bf 7a53 86bf 6fb9 04bf
000000f0: f40d dbbe 9c30 e73c 699d 283f b34e 19c0
00000100: d5ee a03f 55d7 ad3e 6240 613e 816b 22bf
00000110: d4ac 48be e746 bf3d 2bb5 793e 97a3 0f3e
00000120: 1177 0ebf 5eb2 c6bf e10b f83d c0f9 143f
00000130: 2852 c0be 381a aabe 2fdf 1dbe 38d9 0c3f
00000140: f85a 23bf 957b 01bf 3cc2 4b3f 5db2 bebd
00000150: 1d24 89be efb6 2dbd 0118 ab3f c4a5 07bf
00000160: e060 9c3e 7aef 91bf c37e 0d3f f29c de3e
00000170: 2962 73be 2ab4 3a3f 5487 73bf 712b a73e
00000180: 40a0 24bf c3f7 94be 3917 f4bd c256 4ebf
00000190: 4861 763e b7e9 00bf 7476 65bd b1fb 49bf
000001a0: 2d97 703f 1027 06bf 8164 313f eb1e d5bf
000001b0: cf88 6e3c bb03 63bd 3d98 2abf 5816 02bf
000001c0: a5e7 653e aafb dd3c bffb b23e 83d2 793e
000001d0: 0ba3 e13c afea 68bf 7c57 513e 6be1 4dbf
000001e0: f00c df3e 1592 01bf 68aa 7fbf 67c8 03be
000001f0: 1040 d53e e05f 5cbe 11fb 5ebd 9acb 3b3f
00000200: 77aa 763f 4217 953f b8a8 043f 680c b93e
00000210: c2a8 1d3f f0cf 753f 19a7 893e 061e 27bc
00000220: 6602 153f 99b5 ed3e 738d 1abf 9428 12bf
00000230: 8c78 3c3f 4071 ec3d df86 053e ce8d 23bf
00000240: 235d e5be e08c 26bf 2800 4abd b20c 873e
00000250: 4a60 37bf d617 d63e cdde 6a3f b0ec 22bf
00000260: 521f b73f 96c4 b4be 7dfc 28bf cfba 45be
00000270: 58de d4be 5575 9dbf 2db4 26bf 337b ab3d
00000280: e0f4 afbe b5e8 8fbf d115 41bd 0951 a0bf
00000290: 8778 56bf abc4 72bf 95fc 4d3e d9a1 6fbe
000002a0: 1472 1c3f 7289 343f fc56 54bf f20d bbbf
000002b0: 4e2a 703f 5df4 2b3e eef3 423e 97a2 9d3f
000002c0: 54eb 083f a3b5 4abf 1f64 073f f455 963f
000002d0: e0e3 5e3f a7d6 ccbe 5804 4b3f 8f55 10bf
000002e0: 1b8e 07bf e88d 283d 13c5 65be 6f70 0fbf
000002f0: 8703 e7bd b7e8 30be 7bc0 1ebf 0d4c 4e3d
00000300: 28fa 783f 9e5b a93e 475f 70be a9e7 8a3e
00000310: 8771 073e 716b 9cbe 6b6b 86be d025 953f
00000320: 8edf df3e 66ca 90be 23f3 8fbe 2efd bd3e
00000330: 7811 8cb9 3ab5 0fbf 94e4 993d 5fda 7abf
00000340: 6850 7abd 6ef4 00bd 160d 293f 5982 df3e
00000350: 4e2f 62bf c377 0a3f d613 9fbe 3ddb 52bf
00000360: ea60 82be 44d0 bbbf 592c 87be 5a23 323f
00000370: 88f6 183f 7593 a2be 0382 3f3f 2bd7 8cbf
00000380: 00f6 ffbe 9e9d 0a3d 80ea 1e3f beb1 dc3e
00000390: c309 143f fadb 0b3e 5b67 d23d 79ac fabe
000003a0: 1896 7c3f 92fe 643e 72e1 e7be 7a27 e13f
000003b0: b218 fa3e d7e4 00be 2832 41be 0ee6 4fbf
000003c0: 8cfa 29c0 9703 2fbf bfff 7cbf a666 c3be
000003d0: 90e5 a73e 6766 77be 6559 373d ca4e 513f
000003e0: 9831 473f f11b edbe 3cae 803f d70e a53d
000003f0: 3125 013e 7d97 6b3f 7cee c0be 666a 6fbe

tabnet.encoder.initial_splitter.shared.glu_layers.1.bn.bn.weight f4 [32]
0.89829195 0.9292819 0.9718296 0.9473445 1.0101118 1.0996586 0.95933115 0.94552475
1.0486556 1.0255826 1.0089667 1.0002053 0.9820345 1.0080009 1.0235968 1.0055293
0.95597595 0.93385345 1.0579338 0.9674109 1.0864483 1.0744244 1.0338535 0.96443784
1.0932771 1.0219433 1.0751551 0.95364225 0.9059131 1.0802147 1.0981224 1.015231
00000000: 76f6 653f 6be5 6d3f d3c9 783f 2b85 723f
00000010: 584b 813f 9dc1 8c3f ba96 753f e90d 723f
00000020: 593a 863f 4a46 833f d225 813f ba06 803f
00000030: 9d66 7b3f 2c06 813f 3805 833f 2fb5 803f
00000040: d7ba 743f 0511 6f3f 606a 873f 3ea8 773f
00000050: bd10 8b3f bd86 893f 5055 843f 66e5 763f
00000060: 81f0 8b3f 0acf 823f af9e 893f e621 743f
00000070: ece9 673f 7a44 8a3f 468f 8c3f 17f3 813f

tabnet.encoder.initial_splitter.shared.glu_layers.1.bn.bn.bias f4 [32]
0.073810995 0.082873665 0.044188328 -0.01771274 0.06785535 -0.07540299 0.0633091 -0.09456487
0.09714732 -0.011970672 0.085942104 -0.054706935 0.06204626 0.10939802 -0.09848149 0.096784554
-0.0936377 -0.045790568 -0.041989703 -0.06355055 -0.059376694 0.026426144 -0.045917105 -0.09984122
0.009767405 0.04392606 0.0008122979 0.08034897 -0.0005018981 0.0066683004 -0.020809144 0.0011473261
00000000: 382a 973d abb9 a93d d2fe 343d 4f1a 91bc
00000010: bff7 8a3d e26c 9abd 34a8 813d 3aab c1bd
00000020: 2df5 c63d a320 44bc 6a02 b03d 6114 60bd
00000030: 3824 7e3d 120c e03d aab0 c9bd fb36 c63d
00000040: 1fc5 bfbd e48e 3bbd 65fd 2bbd ca26 82bd
00000050: fa34 73bd a47b d83c 9313 3cbd 8e79 ccbd
00000060: 7707 203c d0eb 333d 64f0 543a 008e a43d
00000070: d091 03ba c281 da3b f077 aabc e061 963a

tabnet.encoder.initial_splitter.shared.glu_layers.1.bn.bn.running_mean f4 [32]
0.08258696 0.06401418 -0.03858772 0.07578597 0.07119386 -0.025048148 -0.009811042 -0.04847438
0.023475029 -0.03778186 -0.09938972 -0.051386364 0.0565475 0.09955921 -0.021591477 -0.0012530123
-0.07493534 0.041527033 -0.0983546 -0.07321986 0.01721066 0.056834392 -0.016433079 0.06835444
0.032615136 0.041641776 -0.04422936 -0.07927559 0.046965677 -0.12738228 -0.015843833 -0.053603943
00000000: 5a23 a93d de19 833d 280e 1ebd ad35 9b3d
00000010: 16ce 913d c631 cdbc 7ebe 20bc 128d 46bd
00000020: b44e c03c 27c1 1abd d68c cbbd 827a 52bd
00000030: 5a9e 673d b3e5 cb3d 9ce0 b0bc 1e3c a4ba
00000040: b377 99bd 4018 2a3d 236e c9bd 4bf4 95bd
00000050: 5ffd 8c3c 2ecb 683d aa9e 86bc 6afd 8b3d
00000060: 7397 053d 9190 2a3d d829 35bd 3e5b a2bd
00000070: 155f 403d 8070 02be edca 81bc cf8f 5bbd

tabnet.encoder.initial_splitter.shared.glu_layers.1.bn.bn.running_var f4 [32]
1.4358897 2.2018154 1.1625584 3.3069854 1.2294084 0.972073 1.1672395 0.877616
1.0323385 1.076351 1.5668604 1.2790419 1.5723536 1.2040015 1.305131 1.270997
0.998559 1.675872 2.015771 1.3652519 0.9165933 1.064211 1.351789 1.1780139
1.2500803 1.3441148 1.2511879 1.1051381 1.1610969 1.7272972 1.2773443 1.6936008
00000000: 3ccb b73f 8bea 0c40 b7ce 943f a6a5 5340
00000010: 415d 9d3f c7d9 783f 1b68 953f 71ab 603f
00000020: ab23 843f dfc5 893f e28e c83f a5b7 a33f
00000030: e242 c93f b91c 9a3f 880e a73f 08b0 a23f
00000040: 90a1 7f3f f982 d63f 6402 0140 93c0 ae3f
00000050: dca5 6a3f 1138 883f 6c07 ad3f 29c9 963f
00000060: a202 a03f f40b ac3f ed26 a03f 2a75 8d3f
00000070: d39e 943f 1318 dd3f 0580 a33f e9c7 d83f

tabnet.encoder.initial_splitter.specifics.glu_layers.0.fc.weight f4 [32, 16]
-0.675039 -0.4233772 0.7160081 1.3145992 -0.8441153 -0.079810984 0.49916154 -1.1010286
-0.12428982 0.028884657 0.18313669 0.51554227 -0.29851654 -1.4456689 -0.76626223 -0.08114013
-1.0813515 -0.4167298 -0.10828301 0.24997135 0.25233585 0.43882477 -0.42560992 -0.63328004
0.42883047 -0.9587898 -0.13974528 -0.029014314 -0.080327265 0.7461588 0.0506085 -0.2511551
1.6868831 -0.5765971 0.28826836 0.3800759 -0.60513437 -0.08853815 0.43308318 -0.05282405
-0.32708973 0.13184556 0.5339868 -0.30106947 1.2113768 0.5944632 0.42896953 1.3959469
-0.07785615 0.40556717 -0.12911758 -0.0036616041 0.8107488 0.13857393 -0.5269972 -0.5327485
-0.40631366 -0.17492545 0.07196452 0.76225 0.76773185 0.38816246 -0.5874451 -0.36615902
0.42410943 -0.6786992 0.19658148 0.06952544 -1.0590229 -1.9486187 -0.07168736 0.3176695
-1.1751969 0.4024058 1.1664283 -0.1538732 -0.27078545 -0.21400166 0.12373191 -0.2753002
-0.041413378 0.9610937 0.5348774 -0.053949583 0.8615397 -0.24321961 0.48558775 -0.95609844
1.2763358 -0.24193533 0.76771194 -1.2054719 1.040997 -0.44998568 -0.66459227 -0.4396863
-0.5808354 -1.3712347 0.30108583 -0.065165624 -0.1784377 0.22492337 -0.60927397 0.5264224
-0.4913082 -0.11975541 -0.20735109 0.43835735 0.16668066 -0.41674617 0.6458115 -0.08593084
-0.4056197 -0.7336854 0.37434244 1.1121225 -0.0016502509 -0.48695078 0.7149403 -0.20503081
0.4193313 0.06761327 -0.4620978 -0.13621916 -1.0924107 -0.3098452 -1.2537761 0.80260855
0.5702645 0.7139695 0.3006016 -0.36744452 -0.21816783 -0.23645931 -0.69778013 -0.56691796
-0.12841646 -0.27084848 0.19275308 -1.0577936 -0.7605807 -0.54890925 0.2522722 -0.6688781
0.7278796 0.99879694 0.104580596 -0.036924444 -0.31443298 0.004033178 -0.6576191 -0.078305215
0.6744188 -1.8337334 0.01798767 0.50956404 -0.25893146 0.4924999 -0.6459188 1.3524309
0.028291281 -0.10458657 0.3346929 1.3741921 0.7624729 0.7250164 -0.43288422 -0.81672823
0.5468122 0.35962173 0.20073256 0.6475389 -0.21248107 0.55650353 0.19829747 1.0873591
0.6563591 0.952677 -0.41582423 -0.7790229 0.098138034 0.31458753 -0.6041386 -0.4109241
-0.8416239 -0.46117494 -0.10509313 1.4721423 0.012079347 -0.8970545 -0.49086913 0.49145636
-0.9040779 -0.5980827 0.50754476 -0.7274529 -0.24353819 0.030419543 1.0706848 0.30055252
0.12186467 -1.6022451 0.7769048 0.16910003 0.2557349 -0.4825371 -0.7041437 -0.74216676
1.0803654 0.17636615 0.657574 -0.060632035 0.088201344 1.1074716 0.37773383 0.5720905
-0.86218625 0.093907624 -0.30724475 -0.85386467 0.26087913 -0.09454799 0.2610434 0.9829876
-0.022342073 -0.6810289 -0.6371955 0.44487938 -0.047440644 0.7409863 -0.31394362 -1.0613613
-0.5801259 -0.29897565 -0.59777313 0.49111655 -0.22759369 -0.053307593 1.3957751 1.1402931
-1.2561353 0.37902036 0.34249675 0.048734523 0.37661213 -0.6351624 -0.96130145 0.095396854
0.5178965 -0.7911672 0.30351168 0.9319747 0.04047437 -0.35981676 0.58078575 -0.8626666
00000000: 5bcf 2cbf e5c4 d8be 4f4c 373f c944 a83f
00000010: f117 58bf f173 a3bd 1a92 ff3e 81ee 8cbf
00000020: a98b febd 849f ec3c 2f88 3b3e 94fa 033f
00000030: 29d7 98be ae0b b9bf c329 44bf cc2c a6bd
00000040: ba69 8abf 9c5d d5be 7cc3 ddbd 7df8 7f3e
00000050: 2a32 813e a4ad e03e 8be9 d9be a41e 22bf
00000060: ab8f db3e 4073 75bf 6319 0fbe 6daf edbc
00000070: 9f82 a4bd 4304 3f3f dc4a 4f3d 6797 80be
00000080: c9eb d73f de9b 13bf e997 933e 4f99 c23e
00000090: 16ea 1abf 7d53 b5bd 14bd dd3e 085e 58bd
000000a0: 4e78 a7be 8602 073e 5cb3 083f c725 9abe
000000b0: 650e 9b3f be2e 183f e5a1 db3e 63ae b23f
000000c0: 0c73 9fbd 80a6 cf3e 6637 04be 86f7 6fbb
000000d0: 3c8d 4f3f 53e6 0d3e 4ae9 06bf 3562 08bf
000000e0: 5808 d0be a81f 33be 2262 933d d122 433f
000000f0: 138a 443f 3bbd c63e cd62 16bf 3279 bbbe
00000100: df24 d93e 3bbf 2dbf a84c 493e 5b63 8e3d
00000110: 108e 87bf 566c f9bf d3d0 92bd 94a5 a23e
00000120: da6c 96bf 2208 ce3e 864d 953f f090 1dbe
00000130: 64a4 8abe 4023 5bbe 2867 fd3d 26f4 8cbe
00000140: 13a1 29bd 3d0a 763f baed 083f 3dfa 5cbd
00000150: de8d 5c3f 900e 79be f59e f83e dec2 74bf
00000160: f95e a33f e5bd 77be c588 443f e74c 9abf
00000170: 643f 853f 8664 e6be b822 2abf 901e e1be
00000180: a1b1 14bf 9e84 afbf ec27 9a3e 8e75 85bd
00000190: 5fb8 36be 5052 663e 61f9 1bbf 9ec3 063f
000001a0: c08c fbbe 5342 f5bd d853 54be 6070 e03e
000001b0: 56ae 2a3e c15f d5be e753 253f 82fc afbd
000001c0: 63ad cfbe ced2 3bbf d0a9 bf3e 085a 8e3f
000001d0: 3b4d d8ba 9d51 f9be 5406 373f 99f3 51be
000001e0: 98b2 d63e d378 8a3d 1598 ecbe 097d 0bbe
000001f0: 1dd4 8bbf 08a4 9ebe bc7b a0bf c177 4d3f
00000200: dbfc 113f b5c6 363f 74e8 993e b021 bcbe
00000210: 6367 5fbe 6422 72be b8a1 32bf 8921 11bf
00000220: 9b7f 03be a7ac 8abe 1061 453e c865 87bf
00000230: 6bb5 42bf 5185 0cbf d229 813e 983b 2bbf
00000240: 5156 3a3f 28b1 7f3f 5a2e d63d 163e 17bd
00000250: 5cfd a0be c028 843b ba59 28bf 7c5e a0bd
00000260: b6a6 2c3f c7b7 eabf e15a 933c ca72 023f
00000270: aa92 84be f228 fc3e ef5a 25bf 751c ad3f
00000280: 1ec3 e73c 7c31 d6bd de5c ab3e 87e5 af3f
00000290: 6d31 433f ad9a 393f 00a3 ddbe 1a15 51bf
000002a0: e2fb 0b3f 5720 b83e d68c 4d3e 1cc5 253f
000002b0: a394 59be 0477 0e3f 7e0e 4b3e 952e 8b3f
000002c0: 2607 283f a4e2 733f eae6 d4be 0b6e 47bf
000002d0: 98fc c83d 9e11 a13e d4a8 1abf a564 d2be
000002e0: aa74 57bf 1f1f ecbe 113b d7bd 296f bc3f
000002f0: 74e8 453c 5da5 65bf 3353 fbbe 2ba0 fb3e
00000300: a671 67bf f31b 19bf 74ee 013f 5a3a 3abf
00000310: 1362 79be 6832 f93c 330c 893f 05e2 993e
00000320: 2f94 f93d 5e16 cdbf 3ce3 463f 8f28 2d3e
00000330: afef 823e 1a0f f7be c342 34bf a4fe 3dbf
00000340: 6a49 8a3f 5499 343e c556 283f 4c59 78bd
00000350: e8a2 b43d a1c1 8d3f 5466 c13e 8674 123f
00000360: 3db8 5cbf a452 c03d 2f4f 9dbe e096 5abf
00000370: f391 853e 60a2 c1bd 7ba7 853e 13a5 7b3f
00000380: b906 b7bc e957 2ebf 3f1f 23bf 3bc7 e33e
00000390: 1f51 42bd 47b1 3d3f 38bd a0be b0da 87bf
000003a0: 2283 14bf 5613 99be a907 19bf a173 fb3e
000003b0: 520e 69be 1059 5abd c2a8 b23f 20f5 913f
000003c0: 0bc9 a0bf f50e c23e bc5b af3e da9d 473d
000003d0: 4ed3 c03e 019a 22bf da17 76bf 6d5f c33d
000003e0: dd94 043f ef89 4abf e265 9b3e e595 6e3f
000003f0: 74c8 253d e739 b8be 60ae 143f b8d7 5cbf

tabnet.encoder.initial_splitter.specifics.glu_layers.0.bn.bn.weight f4 [32]
0.95047283 1.0853252 0.90378803 1.0911129 0.9835085 1.0362802 1.0088943 1.074257
0.990885 0.90201586 0.9392373 1.0457355 1.0225568 1.0713317 0.90818816 1.085842
0.94403434 0.91952574 1.0435942 0.8971028 0.99742943 0.91863585 0.964523 1.0632071
1.0286922 0.8984489 0.99141 1.0204438 0.9994009 0.9724317 0.90575993 1.1098037
00000000: 3052 733f f0eb 8a3f a75e 673f 96a9 8b3f
00000010: 37c7 7b3f d4a4 843f 7323 813f 4181 893f
00000020: a4aa 7d3f 83ea 663f db71 703f a9da 853f
00000030: 24e3 823f 6621 893f 057f 683f dffc 8a3f
00000040: 3cac 713f 0a66 6b3f 7f94 853f 87a8 653f
00000050: 8957 7f3f b82b 6b3f fbea 763f 2c17 883f
00000060: 30ac 833f bf00 663f 0ccd 7d3f e79d 823f
00000070: bdd8 7f3f 49f1 783f e2df 673f 0c0e 8e3f

tabnet.encoder.initial_splitter.specifics.glu_layers.0.bn.bn.bias f4 [32]
-0.051024083 -0.07528611 -0.073850244 0.039226707 0.08583455 0.08694572 0.050209574 -0.06848428
-0.054271106 -0.09889457 -0.0041247904 -0.08676908 0.0012133745 -0.10778986 -0.042242937 0.018692777
-0.06264996 0.08565211 -0.09852924 0.09569182 -0.010943752 0.02964547 0.015057742 0.024506692
-0.018519502 -0.018219026 -0.03914248 0.063509576 0.042235035 0.03115471 -0.0049448167 0.07874927
00000000: a1fe 50bd 9b2f 9abd cc3e 97bd 2fac 203d
00000010: 06ca af3d 9910 b23d 8ea8 4d3d 7c41 8cbd
00000020: 614b 5ebd 3c89 cabd 4029 87bb fdb3 b1bd
00000030: 180a 9f3a eec0 dcbd ee06 2dbd 9821 993c
00000040: 9f4e 80bd 606a af3d b3c9 c9bd 13fa c33d
00000050: 6c4d 33bc 0fdb f23c bfb4 763c 42c2 c83c
00000060: 36b6 97bc 1140 95bc dd53 20bd 4f11 823d
00000070: a5fe 2c3d 2a38 ff3c 2108 a2bb 4c47 a13d

tabnet.encoder.initial_splitter.specifics.glu_layers.0.bn.bn.running_mean f4 [32]
-0.04767539 0.045659106 -0.011963612 0.018689914 -0.015879178 0.040507797 -0.009677295 -0.09584591
0.07057078 0.08005261 -0.027579015 0.025438605 0.033808198 -0.010147326 0.009485478 0.0574796
0.07028089 -0.05146764 0.02050446 -0.05585986 0.015265664 -0.003937433 -0.026425788 0.04411726
-0.0034600543 0.07728504 0.09478749 -0.016164524 -0.037092835 0.07958185 -0.0021557556 -0.04950721
00000000: 4547 43bd 0b05 3b3d 0703 44bc 971b 993c
00000010: 0d15 82bc 81eb 253d 848d 1ebc dc4a c4bd
00000020: 6a87 903d 9ff2 a33d 63ed e1bc 9f64 d03c
00000030: 777a 0a3d f840 26bc fa68 1b3c bb6f 6b3d
00000040: 6def 8f3d bbcf 52bd f8f8 a73c 4fcd 64bd
00000050: d61c 7a3c 9505 81bb e57a d8bc 4db4 343d
00000060: 14c2 62bb 9e47 9e3d f21f c23d 776b 84bc
00000070: a8ee 17bd cffb a23d 9447 0dbb 12c8 4abd

tabnet.encoder.initial_splitter.specifics.glu_layers.0.bn.bn.running_var f4 [32]
1.6414675 1.5314444 0.8961106 0.915678 1.7600694 1.6010913 1.4304929 0.9349147
1.2293726 1.5791441 1.4721788 1.1709174 1.080236 0.9387874 1.6650513 1.1124712
1.2293415 1.0773014 1.1383973 1.0511124 1.0547379 1.302494 1.4659956 2.7426193
1.0544387 3.028058 1.1200122 1.1520598 1.8197411 1.6134865 1.895419 1.5630121
00000000: 9b1b d23f 5f06 c43f 8167 653f e069 6a3f
00000010: f449 e13f 8ff0 cc3f 641a b73f 9256 6f3f
00000020: 155c 9d3f 6521 ca3f 5b70 bc3f 9fe0 953f
00000030: 2c45 8a3f 5f54 703f 6720 d53f 7565 8e3f
00000040: 105b 9d3f 03e5 893f 01b7 913f da8a 863f
00000050: a701 873f 20b8 a63f bea5 bb3f 1387 2f40
00000060: d9f7 863f b4cb 4140 8f5c 8f3f b276 933f
00000070: 47ed e83f ba86 ce3f 179d f23f c810 c83f

tabnet.encoder.initial_splitter.specifics.glu_layers.1.fc.weight f4 [32, 16]
0.13017865 0.44374198 1.4848022 0.54288447 -0.59371364 -0.25003597 -0.5649212 0.38069814
-0.6736844 0.33117333 -0.45661575 -0.89817464 -0.0016027116 0.8509817 -0.42108667 0.6827591
0.36993426 -0.24831544 0.48589498 0.018078571 1.071326 -1.2768426 -0.6914438 -0.06231858
-1.2668209 -0.4549327 -0.81798655 -0.08826413 0.44404122 -0.43904835 1.2663612 0.88000745
1.366445 -0.4119401 -0.9277794 0.52251774 -0.265743 1.1562685 0.17781934 -0.21346207
0.17268853 -0.62424934 0.034605198 1.1888537 -1.3193548 -0.34504566 -0.70753723 0.10132429
-0.66384536 -0.42646044 -0.14128965 0.21334623 0.31428018 0.5250923 -0.5699 -0.14321367
0.63057655 0.13373648 1.1453514 -0.27177018 -1.3292196 0.20302185 0.18523256 -0.2533187
2.0099065 -0.4526222 -0.4153501 0.79911697 -0.35451543 -0.42972994 -0.09588794 -0.44636786
-0.0073956395 0.52334 -1.2134116 -0.0070185764 -0.49276605 -1.2062873 -0.21633127 1.5207992
0.15385827 -0.34008005 0.43572077 -0.20778652 0.19126634 0.56041646 -0.4115029 0.26394045
-0.97432995 0.38766396 1.5578365 -0.541606 0.95714116 0.35311106 -1.1032474 0.80006456
-0.03564507 0.38763535 -0.87335324 -0.33647513 -0.61973375 0.18150687 1.2101388 -0.619857
0.61056286 0.56567323 -0.06368516 -0.5315472 0.040800694 -0.66029435 -0.6597932 -0.81534153
0.7819895 0.11629502 0.5096372 0.11882492 -0.58708155 -0.31359947 -0.29683653 0.09513847
0.69412965 -1.2439905 -0.3725913 0.93503505 -1.414662 -0.45114103 -0.82828736 -0.59506494
-1.4341004 -0.097376056 -0.24470325 0.45666593 -1.1349587 -0.0036411406 -0.6000845 -0.28734782
-1.074113 -1.370032 -0.31864563 -0.50407 0.42982614 -0.52312136 -0.7900689 0.38736925
0.0599357 -1.1455545 -0.2835484 1.1829749 1.3182548 -0.5541401 -0.31510103 -0.876773
0.45219257 -1.2233217 0.5707814 -0.85335547 0.32651746 0.57295215 -0.22152698 -0.33143038
-0.50138915 -0.622692 -0.17843856 0.30044383 -0.9938849 -1.2172122 0.48054495 -0.22966786
1.456801 -0.14004236 -0.33888078 1.3367182 0.35841233 0.6515084 -0.12137634 0.46677637
2.001874 -0.34063908 0.44280833 -0.35802945 -1.2434033 0.4199616 -0.88836795 0.67598665
0.060038775 -0.2894051 0.15321016 -0.25816882 -0.46761322 0.009118671 -0.72392184 -0.16641048
-0.4051885 0.83176774 0.22696605 1.018241 0.5742543 2.2194293 -1.5422077 -0.60172457
0.92197955 0.13222387 0.7084832 -0.063574225 0.18726553 0.33135283 0.35430884 -0.94916904
-0.040625084 -0.06363527 -0.10722365 -0.37440878 -1.0850731 0.0069526434 -0.12818198 0.027794048
0.06575958 0.025334643 0.8494536 -0.59141135 0.8538902 -0.9554545 -0.26563147 0.24832048
-0.12174876 -1.1793033 -0.24633591 0.74765855 -0.8549639 -0.078507274 0.5888225 -0.33269694
-0.23543267 -0.31849313 -0.3477833 0.12031915 -0.26525193 -0.56045306 1.09394 -0.26583502
0.7087236 0.94175667 -0.14555056 0.65673417 -0.32621893 -0.6165381 -1.0247402 0.08958924
-0.64077127 -1.1849942 -0.64849144 -0.5711381 0.4265244 -0.5080743 -0.11933899 0.08574595
00000000: 8d4d 053e 2632 e33e 000e be3f 7afa 0a3f
00000010: 9efd 17bf b704 80be ad9e 10bf deea c23e
00000020: 9576 2cbf 8d8f a93e 8ac9 e9be c6ee 65bf
00000030: 1412 d2ba f0d9 593f ac98 d7be 4dc9 2e3f
00000040: 0668 bd3e 6746 7ebe 3ac7 f83e 8319 943c
00000050: 3621 893f 946f a3bf 7602 31bf c441 7fbd
00000060: 3027 a2bf f0ec e8be 9167 51bf d3c3 b4bd
00000070: 5f59 e33e f2ca e0be 2018 a23f 2b48 613f
00000080: abe7 ae3f d0e9 d2be f382 6dbf b9c3 053f
00000090: 770f 88be 9b00 943f 4616 363e cd95 5abe
000000a0: 43d5 303e cece 1fbf 2ebe 0d3d 5c2c 983f
000000b0: 9ee0 a8bf d3a9 b0be 2921 35bf 1c83 cf3d
000000c0: c5f1 29bf 0659 dabe 3cae 10be 6f77 5a3e
000000d0: 55e9 a03e 736c 063f f7e4 11bf 9ba6 12be
000000e0: 776d 213f 37f2 083e e09a 923f 7625 8bbe
000000f0: de23 aabf f6e4 4f3e 9bad 3d3e fdb2 81be
00000100: 4fa2 0040 19be e7be c5a8 d4be ee92 4c3f
00000110: 0c83 b5be 9005 dcbe e560 c4bd 548a e4be
00000120: 1f57 f2bb 9cf9 053f 1251 9bbf 16fc e5bb
00000130: d54b fcbe 9f67 9abf f285 5dbe 8ca9 c23f
00000140: 068d 1d3e f91e aebe cb16 df3e fdc5 54be
00000150: 53db 433e 7477 0f3f 82b0 d2be 3423 873e
00000160: b06d 79bf e47b c63e 3067 c73f b1a6 0abf
00000170: 3407 753f f9ca b43e 3637 8dbf 08d1 4c3f
00000180: 9100 12bd 2478 c63e 1494 5fbf 7846 acbe
00000190: dfa6 1ebf f0dc 393e d4e5 9a3f f3ae 1ebf
000001a0: d94d 1c3f f6cf 103f 5d6d 82bd 7a13 08bf
000001b0: a11e 273d 0d09 29bf 35e8 28bf 39ba 50bf
000001c0: 7730 483f 152c ee3d 9577 023f 7b5a f33d
000001d0: fa4a 16bf 1c90 a0be f5fa 97be f5d7 c23d
000001e0: 7bb2 313f 153b 9fbf 49c4 bebe 755e 6f3f
000001f0: a513 b5bf f5fb e6be a40a 54bf 2d56 18bf
00000200: 9a90 b7bf 196d c7bd 7d93 7abe 1ed0 e93e
00000210: 5446 91bf 34a0 6ebb 239f 19bf 411f 93be
00000220: 897c 89bf 355d afbf 8525 a3be bb0a 01bf
00000230: 2c12 dc3e 48eb 05bf f541 4abf 4355 c63e
00000240: 237f 753d 88a1 92bf 422d 91be b96b 973f
00000250: 93bc a83f 20dc 0dbf ec54 a1be 3274 60bf
00000260: c985 e73e ce95 9cbf bb1e 123f 8175 5abf
00000270: 4c2d a73e feac 123f f8d7 62be 3eb1 a9be
00000280: 0a5b 00bf be68 1fbf 99b8 36be c6d3 993e
00000290: 3e6f 7ebf 9ccd 9bbf fd09 f63e 0d2e 6bbe
000002a0: 7578 ba3f 4467 0fbe c881 adbe 9519 ab3f
000002b0: d281 b73e 41c9 263f 2994 f8bd 50fd ee3e
000002c0: b41e 0040 3f68 aebe c6b7 e23e a34f b7be
000002d0: d727 9fbf 3505 d73e 156c 63bf 760d 2d3f
000002e0: 38eb 753d e82c 94be 20e3 1c3e b42e 84be
000002f0: 006b efbe 7a66 153c f152 39bf 8267 2abe
00000300: de74 cfbe bbee 543f ca69 683e b955 823f
00000310: 5402 133f 210b 0e40 1067 c5bf 9f0a 1abf
00000320: da06 6c3f b265 073e 285f 353f 3433 82bd
00000330: 89c2 3f3e 14a7 a93e f867 b53e befc 72bf
00000340: 7d66 26bd 3553 82bd 1398 dbbd 82b2 bfbe
00000350: ade3 8abf 00d3 e33b 2342 03be 58b0 e33c
00000360: f5ac 863d 998a cf3c cb75 593f bc66 17bf
00000370: 8c98 5a3f ab98 74bf d900 88be b947 7e3e
00000380: 6a57 f9bd 69f3 96bf 7b3f 7cbe 8d66 3f3f
00000390: eade 5abf 6cc8 a0bd 12bd 163f 4157 aabe
000003a0: 4315 71be 8811 a3be a710 b2be e369 f63d
000003b0: 1acf 87be da79 0fbf 3a06 8c3f 871b 88be
000003c0: e96e 353f f716 713f 350b 15be bb1f 283f
000003d0: 2b06 a7be 71d5 1dbf b02a 83bf 907a b73d
000003e0: 9609 24bf e4ad 97bf 8903 26bf 1b36 12bf
000003f0: 6861 da3e 2811 02bf 0068 f4bd 939b af3d

tabnet.encoder.initial_splitter.specifics.glu_layers.1.bn.bn.weight f4 [32]
1.0 1.0 1.0 1.0 1.0 1.0 1.0 1.0
1.0207133 0.9514897 1.0020864 1.0817235 0.95578796 0.9781244 0.8982757 1.0449564
1.0 1.0 1.0 1.0 1.0 1.0 1.0 1.0
1.0856214 0.96658945 1.0000184 1.0476189 1.0809721 0.9935643 0.9253998 0.8999211
00000000: 0000 803f 0000 803f 0000 803f 0000 803f
00000010: 0000 803f 0000 803f 0000 803f 0000 803f
00000020: bca6 823f d494 733f 5e44 803f ea75 8a3f
00000030: 85ae 743f 5c66 7a3f 65f5 653f 22c1 853f
00000040: 0000 803f 0000 803f 0000 803f 0000 803f
00000050: 0000 803f 0000 803f 0000 803f 0000 803f
00000060: a4f5 8a3f 6872 773f 9a00 803f 6018 863f
00000070: 4b5d 8a3f 3b5a 7e3f 00e7 6c3f 3b61 663f

tabnet.encoder.initial_splitter.specifics.glu_layers.1.bn.bn.bias f4 [32]
0.0 0.0 0.0 0.0 0.0 0.0 0.0 0.0
0.040673252 -0.023668496 0.0076023443 -0.08665352 0.025268104 0.08900308 -0.0045366464 -0.07969535
0.0 0.0 0.0 0.0 0.0 0.0 0.0 0.0
-0.014943528 -0.033719484 0.014940095 0.08953785 -0.07785864 0.07399175 -0.11193323 0.08375791
00000000: 0000 0000 0000 0000 0000 0000 0000 0000
00000010: 0000 0000 0000 0000 0000 0000 0000 0000
00000020: ff98 263d 6fe4 c1bc 161d f93b 6777 b1bd
00000030: 0eff ce3c 3f47 b63d 26a8 94bb 5137 a3bd
00000040: 0000 0000 0000 0000 0000 0000 0000 0000
00000050: 0000 0000 0000 0000 0000 0000 0000 0000
00000060: b3d5 74bc 711d 0abd 4dc7 743c 9f5f b73d
00000070: 5a74 9fbd fd88 973d 403d e5bd 4489 ab3d

tabnet.encoder.initial_splitter.specifics.glu_layers.1.bn.bn.running_mean f4 [32]
-0.020291563 -0.030265817 0.009359685 0.042017717 -0.067577444 0.017705554 -0.0008926571 -0.015575005
0.06348345 0.06187773 -0.046901025 -0.015278627 0.09869202 0.0092377905 0.019752638 0.010818082
0.013967451 -0.019896086 0.041130375 -0.019919064 -0.01134798 -0.04468684 0.03276481 -0.07371893
-0.04080594 0.036591962 0.01871949 0.08477174 0.0015100813 -0.031148909 0.05267182 -0.012837296
00000000: 7e3a a6bc 05f0 f7bc 5d59 193c c51a 2c3d
00000010: 0b66 8abd 3d0b 913c 3401 6aba 4e2e 7fbc
00000020: 9c03 823d 8173 7d3d 4a1b 40bd 3553 7abc
00000030: 0b1f ca3d 1a5a 173c 49d0 a13c 533e 313c
00000040: bcd7 643c 1efd a2bc 5378 283d 4e2d a3bc
00000050: e1ec 39bc 8c09 37bd 6534 063d f3f9 96bd
00000060: 2124 27bd 74e1 153d 9e59 993c ce9c ad3d
00000070: eced c53a ff2b ffbc 68be 573d 8653 52bc

tabnet.encoder.initial_splitter.specifics.glu_layers.1.bn.bn.running_var f4 [32]
1.17226 1.5137416 1.5980991 0.9614397 1.3255826 1.1852111 1.2767807 1.2148976
1.2230003 1.3699222 0.94236296 1.0095955 1.511503 0.9957757 1.2368947 1.0697051
1.1250442 2.4497793 1.1117036 1.3410801 1.0386677 1.0869212 1.0255494 1.0208753
1.0279945 1.3978895 0.9184505 1.2732855 0.9761468 1.7761514 2.5384536 1.4312592
00000000: 9e0c 963f 49c2 c13f 838e cc3f ea20 763f
00000010: b1ac a93f ffb4 973f 8d6d a33f c481 9b3f
00000020: 468b 9c3f 9c59 af3f b33e 713f 6d3a 813f
00000030: ee78 c13f 28eb 7e3f 9152 9e3f 19ec 883f
00000040: 7301 903f 2fc9 1c40 4e4c 8e3f 83a8 ab3f
00000050: 10f3 843f 3c20 8b3f 3445 833f 0bac 823f
00000060: 5395 833f 0bee b23f 921f 6b3f 05fb a23f
00000070: c2e4 793f ee58 e33f 0676 2240 8033 b73f
